AI创新设计/temp_hum温湿度预测/pt/model.pth (torch, 351786 bytes, 19 tensors)

lstm.weight_ih_l0 f4 [256, 10]
-0.030748963 -0.0037142108 -0.06758324 0.068125345 -0.061991066 0.021248143 -0.06797152 -0.016303603
-0.123950586 -0.020734984 0.059249114 0.044550806 0.019447004 0.1045197 0.06548811 0.071750015
-0.051825047 0.034570515 0.03788229 -0.07718476 0.013942811 0.035584748 -0.09063122 0.10593494
0.0042131576 0.119338155 -0.06686773 0.09095001 0.115583256 -0.0041237255 0.018048318 0.09283131
-0.03024819 -0.036803834 -0.015162391 -0.061918356 0.077202685 -0.09719662 0.07699892 0.11278114
-0.08030927 -0.10479168 -0.080575734 -0.11195997 -0.12056469 0.07480996 -0.00029986192 -0.02363792
-0.092693456 0.11755767 -0.07101445 -0.08009866 -0.056359354 0.061829343 -0.09584835 0.06852615
0.051975477 -0.0034491979 -0.107682385 -0.010374591 -0.11397761 0.006976974 0.04951268 0.055001076
-0.11083258 -0.011240914 0.030671546 -0.06445712 -0.10108266 -0.08017791 0.07648569 0.09292116
0.09235005 -0.08792302 -0.07616524 -0.03962532 -0.025753101 -0.10860753 0.113674395 0.07245554
0.011482147 -0.11237778 -0.0139492545 0.051271476 0.033520363 0.05576089 0.044096667 -0.10243938
0.065825425 0.07633141 -0.09713546 0.12548022 -0.09147422 -0.030921957 -0.069113314 -0.09905323
0.06860351 -0.074996494 -0.090963036 0.06581305 -0.11844674 0.019781083 -0.031119563 -0.08941381
-0.0833415 0.11072582 -0.10338917 0.08040106 0.004865355 -0.061918486 -0.04333453 -0.084398516
0.11168305 -0.09307386 -0.03311398 -0.121242926 -0.08912338 0.04725075 0.118699245 -0.11309572
0.00041918256 -0.0727026 0.08634446 0.1076451 -0.07252075 0.11618642 -0.08533338 -0.045546792
-0.041422766 0.07469306 0.061662454 -0.03122384 0.07028916 -0.018918715 0.005166268 -0.08564831
-0.113353595 -0.0039773523 -0.05999634 0.05590873 -0.004144375 0.026091332 0.08825313 -0.010981722
0.02095072 0.049830113 -0.11636306 -0.020224988 -0.027957892 0.072635055 0.07773926 0.007753164
-0.06701754 0.09058767 0.07600943 0.04371574 -0.096164905 -0.032248426 -0.00897334 -0.06470332
-0.08206687 -0.011900273 0.055263784 -0.046025228 -0.010929872 -0.06399041 -0.026958235 0.12739672
0.021993857 0.056907617 -0.007590731 -0.08872177 0.045263864 -0.004468363 0.03481159 -0.0011423781
-0.024496479 0.09899632 -0.03647577 -0.12631096 0.07007633 0.051854003 -0.08558987 -0.0714669
-0.04028787 -0.007007663 0.09962778 0.078837894 -0.0689713 0.10892189 -0.08601488 -0.098855786
0.07896502 -0.015290455 -0.0047776126 0.10573534 0.06943057 0.10403464 0.060198803 -0.107149415
-0.061774664 -0.11288549 0.079591714 0.09373338 -0.017385293 0.007062539 0.017971763 0.097680144
-0.10463596 -0.0033883555 0.02588518 -0.071126945 0.016010607 -0.015882194 0.056890324 -0.042584233
0.08454894 0.0027136724 -0.038692217 0.10317277 0.06738356 -0.057847757 0.027910976 0.009256775
-0.07404064 -0.028673062 -0.058939517 0.07115495 0.093808144 0.09900164 -0.09021241 0.115566455
-0.048238616 -0.1210973 -0.11548743 0.05070767 0.05436412 0.067147635 -0.107348785 -0.110705346
-0.00016739758 -0.09997452 -0.10965462 -0.0057006096 0.01748758 0.027608132 -0.031162044 -0.112018175
-0.07430172 0.0224366 0.090489216 -0.057489347 -0.011594042 -0.06302034 0.029209236 -0.10277196
00000000: 40e5 fbbc 1e6a 73bb 1569 8abd 4d85 8b3d
00000010: 58ea 7dbd 9610 ae3c a734 8bbd 228f 85bc
00000020: ced9 fdbd 6adc a9bc 33af 723d e87a 363d
00000030: 534f 9f3c 6d0e d63d a11e 863d acf1 923d
00000040: 8046 54bd d099 0d3d 762a 1b3d 0b13 9ebd
00000050: 6370 643c 50c1 113d dc9c b9bd 6bf4 d83d
00000060: 870e 8a3b 9067 f43d f3f1 88bd 0044 ba3d
00000070: eab6 ec3d 5120 87bb 11da 933c 581e be3d
00000080: 0dcb f7bc 9ebf 16bd ad6b 78bc 1a9e 7dbd
00000090: 711c 9e3d 060f c7bd 9cb1 9d3d ccf9 e63d
000000a0: 3079 a4bd 059d d6bd e404 a5bd 454b e5bd
000000b0: 9fea f6bd f735 993d c936 9db9 50a4 c1bc
000000c0: 11d6 bdbd 13c2 f03d 0670 91bd c40a a4bd
000000d0: 11d9 66bd c440 7d3d 244c c4bd 7057 8c3d
000000e0: 3de4 543d f00b 62bb 9588 dcbd 30fa 29bc
000000f0: 186d e9bd 1a9f e43b cfcd 4a3d cf48 613d
00000100: 31fc e2bd d02b 38bc e542 fb3c 1802 84bd
00000110: 6d04 cfbd 5134 a4bd 88a4 9c3d 734d be3d
00000120: 0622 bd3d fc10 b4bd 85fc 9bbd 294e 22bd
00000130: 2bf8 d2bc a06d debd 1fce e83d 9263 943d
00000140: 9d1f 3c3c 5226 e6bd 6a8b 64bc 0a02 523d
00000150: a64c 093d 8865 643d b59e 343d bdcb d1bd
00000160: 7bcf 863d a453 9c3d f5ee c6bd e37d 003e
00000170: d656 bbbd 0b50 fdbc 488b 8dbd 6bdc cabd
00000180: ff7f 8c3d c397 99bd d44a babd fec8 863d
00000190: 3494 f2bd f00b a23c 74ee febc 961e b7bd
000001a0: f3ae aabd 38c4 e23d b3bd d3bd 50a9 a43d
000001b0: 8e6d 9f3b 3d9e 7dbd 8c7f 31bd 21d9 acbd
000001c0: 15ba e43d 829d bebd 86a2 07bd 364e f8bd
000001d0: 5286 b6bd 018a 413d 9718 f33d bb9e e7bd
000001e0: bbc5 db39 1ae5 94bd 5dd5 b03d 0975 dc3d
000001f0: c285 94bd 25f3 ed3d 44c3 aebd 468f 3abd
00000200: ebaa 29bd adf8 983d c591 7c3d 23c9 ffbc
00000210: c3f3 8f3d 6cfb 9abc cc49 a93b 6268 afbd
00000220: ee25 e8bd 7354 82bb b9be 75bd 8d00 653d
00000230: 8acd 87bb 7dbd d53c 0fbe b43d aeec 33bc
00000240: d8a0 ab3c a91a 4c3d c24f eebd e0ae a5bc
00000250: f307 e5bc b0c1 943d c335 9f3d 410e fe3b
00000260: 7e40 89bd 0786 b93d d5aa 9b3d 470f 333d
00000270: 1bf2 c4bd ed16 04bd ea04 13bc 2d83 84bd
00000280: ad12 a8bd 5df9 42bc 475c 623d f384 3cbd
00000290: 3513 33bc 670d 83bd 84d7 dcbc 4974 023e
000002a0: 762c b43c f617 693d abbb f8bb c2b3 b5bd
000002b0: 9a66 393d 586b 92bb 9996 0e3d d9bb 95ba
000002c0: d7ac c8bc 95be ca3d 9e67 15bd a957 01be
000002d0: 2e84 8f3d dd64 543d be49 afbd 3d5d 92bd
000002e0: e504 25bd 8aa0 e5bb a609 cc3d c375 a13d
000002f0: d340 8dbd 7112 df3d 9228 b0bd e774 cabd
00000300: 6ab8 a13d d184 7abc 858d 9cbb c58b d83d
00000310: 9d31 8e3d 1d10 d53d 0593 763d 2771 dbbd
00000320: 6e07 7dbd 8230 e7bd fb00 a33d 49f7 bf3d
00000330: 9a6b 8ebc df6c e73b 8539 933c 870c c83d
00000340: 614b d6bd 2c0f 5ebb 280d d43c 01ab 91bd
00000350: ad28 833c 601b 82bc d405 693d ce6c 2ebd
00000360: ff27 ad3d ded7 313b bb7b 1ebd 3f4c d33d
00000370: 6400 8a3d c5f1 6cbd 8fa5 e43c baa9 173c
00000380: 9ea2 97bd c5e3 eabc 906a 71bd b0b9 913d
00000390: 7c1e c03d 5fc1 ca3d 49c1 b8bd 1bae ec3d
000003a0: db95 45bd dc01 f8bd ac84 ecbd d9b2 4f3d
000003b0: e9ac 5e3d b384 893d aed9 dbbd 7cb9 e2bd
000003c0: 7287 2fb9 71bf ccbd 9a92 e0bd 2ecc babb
000003d0: 1d42 8f3c 732a e23c 8b47 ffbc c969 e5bd
000003e0: 802b 98bd f6cc b73c 6952 b93d f379 6bbd
000003f0: f0f4 3dbc cf10 81bd 3548 ef3c 1b7a d2bd

lstm.weight_hh_l0 f4 [256, 64]
0.12318022 0.11158196 0.03572864 0.03963241 -0.07529018 0.03691637 0.122840315 0.0020599777
-0.030387612 -0.027282396 0.074825995 -0.096907206 0.032109346 -0.054627102 0.02104506 0.057868034
-0.054277975 -0.08919632 -0.0018618947 0.029258696 -0.0137623465 -0.012545436 -0.086678736 0.07999091
0.0029584747 0.020590072 0.07982558 -0.045219455 0.103150204 -0.09934692 0.057526797 0.0888358
0.11661474 0.110990606 0.026207618 0.104405425 -0.0135311065 -0.12031464 -0.010984673 -0.06192753
0.09136031 -0.09447448 -0.08149473 -0.049300227 0.08420218 -0.06767143 0.10308082 -0.11284795
-0.03781724 -0.10423851 -0.026976356 -0.0632084 -0.09751974 -0.042973347 -0.12280997 -0.047648456
-0.10271496 0.075119354 0.04711161 0.025702924 -0.08460168 0.06867669 -0.09609983 0.034952793
-0.045959283 -0.054460604 -0.10989241 -0.02609894 0.013327507 -0.025869338 0.039879125 0.080651276
-0.07269541 0.117210925 -0.09159973 0.07902708 -0.055664167 0.08592141 -0.07226986 0.035587568
0.11064211 -0.0056388024 -0.10548802 -0.06594946 -0.051569853 -0.062496237 -0.02194417 -0.101476036
-0.078032896 0.08082718 0.05678903 -0.07703106 -0.08627814 0.11315125 -0.055315852 -0.13102478
0.076459065 -0.08318052 0.053542525 0.06968303 0.074146934 0.06729393 -0.07749982 -0.03324837
0.06327983 0.1249741 -0.08571191 -0.05531138 -0.06987337 -0.050320465 0.01535322 0.111347206
0.087596804 0.076312825 -0.028400853 0.026620233 -0.07990605 -0.024789002 0.059364386 0.038096778
0.08372865 0.013551344 0.10074983 -0.047622677 -0.08670931 0.0973166 0.033546522 0.111052655
0.09878224 -0.040827207 -0.06456655 0.08563557 -0.056042116 -0.094629526 -0.10371859 0.10133537
-0.009772386 -0.006354834 0.009789691 -0.049764752 -0.029785546 -0.037073053 0.016996443 0.031362593
-0.013074284 -0.025588112 0.116845906 0.015853144 -0.020802844 -0.10248059 -0.10295274 -0.039311886
-0.0011277618 0.062881656 0.002028471 -0.10914293 0.045061942 -0.10770655 0.09742949 -0.022295533
0.057796817 -0.057652425 -0.039323125 0.12022641 -0.10132081 -0.08961393 -0.06862471 -0.0019892838
0.016263567 0.058709748 -0.09080487 -0.119574614 -0.06521608 0.039381787 -0.05178528 0.11522667
-0.04943893 0.09114749 0.030822169 0.00014407416 -0.050463777 0.072576344 0.0060220486 0.063624576
0.06903959 0.060563676 -0.054962426 0.029694356 0.044088855 0.020424558 -0.047063395 0.07702761
0.09890774 -0.017624723 -0.019157734 0.04952554 0.117532074 -0.05728366 -0.021389155 -0.053751156
0.08922839 -0.11403254 0.042445555 -0.033645365 -0.09506085 0.07484638 0.014107651 -0.118322276
0.030198462 -0.005922068 -0.02650683 -0.018172486 -0.062414225 -0.0075115208 0.1206058 0.07869136
0.030328287 -0.043589193 -0.03420405 -0.0559791 0.023319399 0.09967018 0.07799648 0.0609277
-0.03226773 0.053961456 0.0107622985 0.032936588 0.019309169 -0.05577723 0.014541585 0.022745172
0.04257153 0.05635926 0.04389312 0.10749943 -0.08529249 -0.10243767 -0.08184389 0.11575781
-0.036104012 -0.10001101 -0.044736765 -0.07835933 -0.07363249 -0.052673247 0.07261972 -0.09687172
-0.10026177 0.036644395 -0.008442795 -0.06913163 -0.0040598675 0.09413696 0.058929775 -0.089499585
00000000: e945 fc3d 1585 e43d 3258 123d 9855 223d
00000010: bd31 9abd 9f35 173d b493 fb3d b100 073b
00000020: 71ef f8bc 557f dfbc 5f3e 993d 4977 c6bd
00000030: 1785 033d abc0 5fbd b166 ac3c 0807 6d3d
00000040: 9552 5ebd 8fac b6bd d20a f4ba efaf ef3c
00000050: 777b 61bc 5f8b 4dbc 9f84 b1bd 46d2 a33d
00000060: f8e2 413b 83ac a83c 987b a33d 0938 39bd
00000070: 6a40 d33d 6676 cbbd 38a1 6b3d 8bef b53d
00000080: b5d3 ee3d 0b4f e33d 5cb1 d63c 83d2 d53d
00000090: 93b1 5dbc 8667 f6bd 0ff9 33bc b9a7 7dbd
000000a0: 1d1b bb3d d67b c1bd b6e6 a6bd 09ef 49bd
000000b0: 3172 ac3d 5297 8abd 091c d33d d31c e7bd
000000c0: 40e6 1abd 007b d5bd 85fd dcbc 6873 81bd
000000d0: 6eb8 c7bd d204 30bd cb83 fbbd 072b 43bd
000000e0: 395c d2bd 2dd8 993d 1bf8 403d f08e d23c
000000f0: a543 adbd 5da6 8c3d fdcf c4bd a92a 0f3d
00000100: cd3f 3cbd 1512 5fbd 460f e1bd 72cd d5bc
00000110: 9e5b 5a3c efeb d3bc 4b58 233d 7f2c a53d
00000120: 55e1 94bd 480c f03d a498 bbbd f3d8 a13d
00000130: 1c00 64bd 90f7 af3d 3802 94bd 45c4 113d
00000140: 5598 e23d b4c5 b8bb 1a0a d8bd 8310 87bd
00000150: e93a 53bd 0efc 7fbd 43c4 b3bc abd2 cfbd
00000160: b6cf 9fbd b888 a53d 9d9b 683d 76c2 9dbd
00000170: 98b2 b0bd d8bb e73d e092 62bd 5c2b 06be
00000180: 9296 9c3d 8c5a aabd 684f 5b3d fab5 8e3d
00000190: 59da 973d 66d1 893d 3ab8 9ebd 712f 08bd
000001a0: db98 813d 6cf2 ff3d ba89 afbd 308e 62bd
000001b0: c519 8fbd d51c 4ebd 128c 7b3c 010a e43d
000001c0: f465 b33d e649 9c3d e8a8 e8bc ad12 da3c
000001d0: c8a5 a3bd 4e12 cbbc 1228 733d 5e0b 1c3d
000001e0: ed79 ab3d 7506 5e3c ed55 ce3d ff0f 43bd
000001f0: a794 b1bd ed4d c73d 1468 093d 936f e33d
00000200: 584e ca3d 6e3a 27bd 783b 84bd b461 af3d
00000210: 6b8c 65bd 20cd c1bd 6a6a d4bd eb88 cf3d
00000220: 5c1c 20bc 363c d0bb f164 203c 20d6 4bbd
00000230: d100 f4bc ead9 17bd 203c 8b3c 1076 003d
00000240: 8635 56bc 299e d1bc e84c ef3d 74de 813c
00000250: ba6a aabc 58e1 d1bd e3d8 d2bd 8005 21bd
00000260: 68d1 93ba 19c8 803d 19f0 043b 5486 dfbd
00000270: df92 383d 4095 dcbd 1d89 c73d 1fa5 b6bc
00000280: 5bbc 6c3d f324 6cbd 4911 21bd 4439 f63d
00000290: 4981 cfbd 8287 b7bd 1d8b 8cbd a55e 02bb
000002a0: 2c3b 853c a279 703d e7f7 b9bd 89e3 f4bd
000002b0: 0290 85bd cc4e 213d cd1c 54bd f6fb eb3d
000002c0: 7a80 4abd 89ab ba3d c67e fc3c 9d12 1739
000002d0: 1bb3 4ebd e8a2 943d 9b54 c53b 9a4d 823d
000002e0: a164 8d3d 9e11 783d 4820 61bd 9441 f33c
000002f0: 8496 343d 6751 a73c 8cc5 40bd a7c0 9d3d
00000300: 2490 ca3d b961 90bc aef0 9cbc 4bdb 4a3d
00000310: a8b4 f03d 45a2 6abd 4f38 afbc 2c2a 5cbd
00000320: 60bd b63d e489 e9bd 64db 2d3d b9cf 09bd
00000330: 43af c2bd 0f49 993d c723 673c f352 f2bd
00000340: c462 f73c e80d c2bb da24 d9bc 77de 94bc
00000350: 0fa6 7fbd 3423 f6bb 2c00 f73d f028 a13d
00000360: 0773 f83c 958a 32bd 8c19 0cbd 574a 65bd
00000370: 5308 bf3c e11f cc3d 9ebc 9f3d 538f 793d
00000380: 2b2b 04bd b006 5d3d 5a54 303c 84e8 063d
00000390: 432e 9e3c aa76 64bd d43f 6e3c 1554 ba3c
000003a0: 7c5f 2e3d f8d8 663d 46c9 333d a928 dc3d
000003b0: d4ad aebd d7ca d1bd c59d a7bd 6e12 ed3d
000003c0: cde1 13bd 93d2 ccbd e63d 37bd db7a a0bd
000003d0: a2cc 96bd e7bf 57bd a6b9 943d ae64 c6bd
000003e0: 0b56 cdbd 6f18 163d a653 0abc e294 8dbd
000003f0: a308 85bb e1ca c03d 5960 713d 8f4b b7bd

lstm.bias_ih_l0 f4 [256]
-0.046160653 -0.025432825 -0.024006434 -0.045372877 0.021503428 -0.08167312 -0.041478213 -0.025576321
-0.08390958 -0.09911608 0.0012860723 -0.10714879 -0.022597685 -0.036306567 0.09336209 -0.10121782
0.11231315 0.08473241 0.056413967 0.021090576 0.086835764 0.09675341 -0.055161756 -0.061957896
0.07597421 0.035408136 -0.12281234 -0.07384717 0.10982103 0.076666676 0.010720828 -0.047907677
0.00038349343 -0.08004784 0.070065506 -0.031341475 -0.052089892 -0.05601204 -0.05731331 -0.11894112
0.024278114 -0.10415637 0.10171949 0.08551404 -0.09299283 0.093711294 -0.06877024 -0.044222027
-0.12653735 0.112379774 -0.025810272 -0.046183757 -0.121435866 -0.051631775 0.12909243 0.026885156
0.044922907 0.07978564 0.09011668 -0.008441154 -0.09460725 -0.0744251 0.052715275 -0.09215218
0.11837915 0.09084739 0.044463478 0.101057075 0.06328672 -0.020071598 -0.099238336 -0.01777514
0.0010921535 -0.07917994 0.1101374 -0.015605411 0.023627272 0.02765857 0.10254907 0.0009150398
-0.09509469 0.035655797 0.078287855 -0.05949332 -0.10349691 0.11381115 0.082743175 0.029106373
0.12109047 -0.12722717 -0.10626314 -0.1215657 -0.018318119 -0.017367546 0.047104344 0.054464635
0.12446225 0.11181664 0.018891186 -0.0846385 -0.12851797 0.03136503 -0.037825346 0.0131464135
0.07877425 -0.104554385 0.0097278785 0.11921507 -0.057756923 -0.12412106 -0.10245078 -0.10624333
0.04153491 -0.07754958 -0.07544993 0.076994956 -0.04402471 0.02110547 -0.12253632 -0.018409248
-0.039515935 0.032446902 0.12501058 -0.09503574 0.069488615 0.038378555 -0.022612803 0.0606528
0.10123881 0.023018569 0.04807542 0.019889267 0.027396223 -0.045161877 -0.07563624 -0.09862568
0.047989693 0.08976832 -0.0039244206 0.09876345 -0.070451334 -0.08743844 -0.050242364 -0.088971734
0.07840647 0.11808504 0.042121362 -0.08659177 -0.09967671 0.079037145 -0.03416372 0.0041934405
0.034849882 0.013847627 0.080408856 -0.015702715 -0.09652624 0.075061195 -0.061687257 0.004817145
0.032122195 -0.09999471 -0.03279015 -0.050101455 -0.1194496 -0.029366959 0.11110285 0.078840144
0.061670214 0.120733134 -0.115379125 0.026642038 0.056329854 0.045016583 0.11246017 -0.08216447
-0.097832106 -0.059450895 -0.08513143 0.010165873 -0.0036214527 -0.12198833 -0.11242795 -0.01616718
-0.049908593 0.08109384 0.058429427 0.047566794 0.027379507 0.092343554 0.043268044 -0.117820986
0.09628546 0.07601415 -0.07397441 -0.009201693 0.022817008 0.0725002 -0.11453724 -0.0025829547
0.09724464 0.073923044 -0.11521483 0.02223972 0.11312923 -0.0022905883 0.004345933 0.014954377
0.07936563 -0.03065792 0.08577902 0.08017724 0.059253834 -0.08447232 0.024396522 0.020705698
-0.122054525 0.0794221 0.038874723 0.012651213 0.08223633 -0.02673885 -0.031006668 0.08741191
-0.056449182 -0.12005639 0.020233037 -0.10001471 0.012095361 -0.09114338 -0.010801568 0.11313877
-0.017831076 0.033312008 0.099773355 0.04948094 0.08564511 -0.047367737 0.0029620794 0.0657009
-0.047263045 -0.020278286 -0.027902558 0.02674944 -0.095772505 -0.05622445 0.0929065 -0.075472854
0.113021135 0.08653598 0.06415024 0.07898964 0.030353336 0.08156591 0.033901248 0.0031661075
00000000: f412 3dbd 8058 d0bc 24a9 c4bc e9d8 39bd
00000010: f527 b03c 3d44 a7bd 0fe5 29bd 6f85 d1bc
00000020: c9d8 abbd 5ffd cabd 6d91 a83a d370 dbbd
00000030: c81e b9bc 32b6 14bd a034 bf3d 4a4b cfbd
00000040: 7004 e63d 3088 ad3d 5512 673d 25c6 ac3c
00000050: f3d6 b13d a726 c63d 4bf1 61bd 90c7 7dbd
00000060: 5e98 9b3d 1f08 113d 0985 fbbd 2f3d 97bd
00000070: d9e9 e03d 6b03 9d3d 69a6 2f3c d73a 44bd
00000080: 9e0f c939 1ff0 a3bd 817e 8f3d eb5f 00bd
00000090: 365c 55bd e16c 65bd 5dc1 6abd 6797 f3bd
000000a0: e5e2 c63c ef4f d5bd 4f52 d03d fc21 af3d
000000b0: 0673 bebd b5eb bf3d 69d7 8cbd 2822 35bd
000000c0: 0293 01be 5e27 e63d 1070 d3bc 2e2b 3dbd
000000d0: 5eb3 f8bd d77b 53bd ce30 043e 423e dc3c
000000e0: 1501 383d a766 a33d 188f b83d c44c 0abc
000000f0: 72c1 c1bd 306c 98bd f9eb 573d 48ba bcbd
00000100: c570 f23d 320e ba3d 561f 363d 03f7 ce3d
00000110: 789c 813d 316d a4bc 783d cbbd 2c9d 91bc
00000120: 9726 8f3a 1829 a2bd b88f e13d d6ad 7fbc
00000130: fb8d c13c 3a94 e23c 3f05 d23d 48df 6f3a
00000140: 01c1 c2bd d00b 123d 6255 a03d 44af 73bd
00000150: 30f6 d3bd d215 e93d 4175 a93d 7d70 ee3c
00000160: 48fe f73d d747 02be 7da0 d9bd 70f7 f8bd
00000170: e10f 96bc 6246 8ebc 7cf0 403d 4f16 5f3d
00000180: 10e6 fe3d 1f00 e53d b0c1 9a3c f356 adbd
00000190: 379a 03be 9e78 003d c0ee 1abd 0e64 573c
000001a0: 6554 a13d 9c20 d6bd ae61 1f3c 0827 f43d
000001b0: 8692 6cbd 2f33 febd b7d1 d1bd 1a96 d9bd
000001c0: 8320 2a3d 50d2 9ebd 7e85 9abd 88af 9d3d
000001d0: 4153 34bd 61e5 ac3c 52f4 fabd fece 96bc
000001e0: 76db 21bd 0be7 043d c602 003e 19a2 c2bd
000001f0: 0c50 8e3d d532 1d3d 7c3e b9bc 126f 783d
00000200: 4b56 cf3d 7091 bc3c bbea 443d d1ee a23c
00000210: 0b6e e03c a9fb 38bd 2ce7 9abd 43fc c9bd
00000220: d790 443d 74d8 b73d 6d98 80bb 7e44 ca3d
00000230: ca48 90bd ed12 b3bd f0ca 4dbd d036 b6bd
00000240: 9293 a03d 92d6 f13d 7387 2c3d 0757 b1bd
00000250: 4e23 ccbd 3ade a13d 42ef 0bbd 2169 893b
00000260: c0be 0e3d 28e1 623c 66ad a43d fba2 80bc
00000270: 8daf c5bd afb9 993d c7ab 7cbd 24d9 9d3b
00000280: 9092 033d 07ca ccbd f74e 06bd 2f37 4dbd
00000290: fea1 f4bd fa92 f0bc e489 e33d f176 a13d
000002a0: e899 7c3d ef42 f73d e44b ecbd 6740 da3c
000002b0: 22ba 663d 4f63 383d 8551 e63d d845 a8bd
000002c0: 335c c8bd c882 73bd 6359 aebd c38e 263c
000002d0: e555 6dbb 04d5 f9bd a040 e6bd 0971 84bc
000002e0: f46c 4cbd 8714 a63d b253 6f3d 66d5 423d
000002f0: fd4a e03c 9e1e bd3d d539 313d 214c f1bd
00000300: 5031 c53d 4fad 9b3d e57f 97bd b3c2 16bc
00000310: bcea ba3c fc7a 943d 8092 eabd ca46 29bb
00000320: 3328 c73d f764 973d c1f5 ebbd 1330 b63c
00000330: 4cb0 e73d b21d 16bb 5468 8e3b 3403 753c
00000340: 738a a23d 5126 fbbc e9ac af3d f733 a43d
00000350: 26b4 723d d3ff acbd 37db c73c ff9e a93c
00000360: b9f7 f9bd 0ea8 a23d 1a3b 1f3d 0947 4f3c
00000370: 856b a83d 6f0b dbbc b201 febc 0405 b33d
00000380: 4237 67bd 20e0 f5bd c1bf a53c 83d4 ccbd
00000390: 9f2b 463c 61a9 babd 0ff9 30bc 4db5 e73d
000003a0: 7a12 92bc 2c72 083d f955 cc3d 87ac 4a3d
000003b0: b466 af3d ac04 42bd 721f 423b 328e 863d
000003c0: e596 41bd a61e a6bc e893 e4bc a421 db3c
000003d0: 6024 c4bd 9c4b 66bd c345 be3d 8391 9abd
000003e0: a077 e73d c739 b13d 3361 833d 52c5 a13d
000003f0: 8fa7 f83c 070c a73d 09dc 0a3d 787e 4f3b

lstm.bias_hh_l0 f4 [256]
-0.09310475 -0.04439764 -0.061970994 0.10178175 0.0592617 -0.03595815 -0.0010708319 0.060577344
0.016234053 0.058438435 -0.036738794 0.11688291 0.029886642 -0.094739094 0.11118534 -0.09237993
0.08194637 -0.0057676183 -0.07322984 0.031247025 -0.0854403 -0.095580615 -0.062426485 -0.054947343
0.033916388 0.033781905 0.023372952 -0.11849856 -0.10641659 -0.10826246 0.11336066 -0.08813491
-0.10363355 0.018152477 -0.097924225 -0.052847594 -0.08683347 0.059076678 0.025618294 -0.039339155
-0.034037773 -0.0817936 -0.07619997 -0.010559135 0.008418997 0.088821284 -0.07628871 0.088989004
0.056340273 -0.109530956 0.07895625 0.08112208 -0.091908544 -0.08362243 -0.0134281395 -0.09304154
0.02910193 0.06686013 -0.0063178926 0.00725995 0.12132557 -0.0009347172 0.05788118 -0.030825533
0.07003849 -0.046392277 -0.050080962 0.026948843 0.056726113 -0.04115862 0.0073703094 -0.006139108
-0.11200374 -0.055515684 -0.11418049 -0.08853025 -0.08779312 -0.11983239 0.11753363 0.016834382
-0.06958569 0.11130154 -0.117940724 -0.058977917 0.04264069 -0.04030021 0.024254357 -0.071537495
0.079786554 0.070152275 0.061751887 0.06446612 0.046369966 -0.021393914 -0.10521554 -0.117928654
0.108144775 -0.12925658 -0.11787971 -0.060880758 0.020523565 -0.084678665 -0.028233126 -0.121010974
-0.122821175 0.0988743 0.086945534 -0.07036629 0.050086774 0.062288523 0.08216388 -0.04125824
-0.10595541 -0.05874143 0.11357139 -0.07027663 -0.11992119 0.061021138 -0.07764645 -0.10491068
-0.057218067 -0.03666077 0.03349088 0.116463594 0.07313584 0.056598518 0.018631972 0.11736368
-0.024768969 0.10793565 0.08490755 -0.10080476 -0.030159274 0.07517888 0.033653893 0.062138274
0.00094999163 0.12268862 0.1076173 0.044844214 -0.11112483 0.022168113 0.050256908 -0.026228663
-0.09063551 0.04345723 0.10970391 -0.11986018 -0.060472976 -0.061461788 -0.07476637 -0.08515753
-0.11389148 0.007240976 0.033270303 0.10364955 -0.020473871 0.11229261 -0.07698601 -0.023704985
0.109175086 -0.019216344 -0.03319777 -0.05877888 0.0846234 0.032285374 0.050467703 -0.057097428
-0.007040391 -0.10019653 0.11040862 0.014660596 -0.011015029 0.06642194 0.091062434 -0.11059135
0.0923075 -0.028065946 -0.05482452 -0.102626584 -0.017771216 -0.118505776 0.11125064 0.04905427
-0.029477073 -0.061921205 -0.021815905 0.0093913395 0.095765814 -0.0054885647 -0.11318925 0.016560938
0.107544646 0.03034521 0.09355218 0.08164713 0.092218325 0.08420654 0.03404917 -0.04308122
-0.09466069 -0.062029634 -0.081695355 0.05394564 -0.088750854 0.08103168 0.033626713 -0.052305613
-0.01512109 0.0028361706 -0.08514895 0.008339113 0.105875164 0.12557481 0.06399392 -0.07416508
0.07462547 0.010740901 0.015364426 0.11946945 -0.08395196 0.05009271 0.0005183305 -0.019556914
0.027367033 0.092886806 0.09714698 -0.11975262 -0.059002962 0.016530572 -0.0015739735 0.027103847
0.020576557 0.09571378 0.037591815 0.117042966 0.11852872 -0.05136819 0.032240666 0.11508943
-0.009516847 0.093596056 0.1135595 0.117537305 -0.08985381 -0.042797506 0.020663276 -0.058543123
0.08669692 0.08070458 0.03720462 0.11814916 0.11293742 -0.06156894 -0.032348912 0.011440504
00000000: b4ad bebd 4dda 35bd 4cd5 7dbd f372 d03d
00000010: 65bc 723d da48 13bd 285b 8cba f31f 783d
00000020: 47fd 843c 245d 6f3d 6b7b 16bd 4f60 ef3d
00000030: d5d4 f43c 9206 c2bd 24b5 e33d b031 bdbd
00000040: 80d3 a73d 4afe bcbb 87f9 95bd c3f9 ff3c
00000050: 53fb aebd c5bf c3bd eab2 7fbd 7710 61bd
00000060: e9eb 0a3d e55e 0a3d a278 bf3c 5faf f2bd
00000070: f1f0 d9bd b5b8 ddbd a229 e83d 1380 b4bd
00000080: d43d d4bd 81b4 943c 7f8c c8bd b876 58bd
00000090: bfd5 b1bd 63fa 713d 75dd d13c 1822 21bd
000000a0: 316b 0bbd 6783 a7bd bb0e 9cbd 3900 2dbc
000000b0: d5ef 093c efe7 b53d 413d 9cbd de3f b63d
000000c0: 0fc5 663d c451 e0bd d0b3 a13d 5523 a63d
000000d0: 8c3a bcbd 3d42 abbd b301 5cbc 908c bebd
000000e0: 2c67 ee3c f7ed 883d 5306 cfbb e0e4 ed3b
000000f0: 8a79 f83d cf07 75ba d114 6d3d d485 fcbc
00000100: 5770 8f3d d405 3ebd b221 4dbd d2c3 dc3c
00000110: a459 683d f195 28bd a382 f13b 922a c9bb
00000120: 3862 e5bd 6a64 63bd 76d7 e9bd 594f b5bd
00000130: e1cc b3bd af6a f5bd 79b5 f03d 42e8 893c
00000140: f182 8ebd 10f2 e33d e88a f1bd d492 71bd
00000150: 01a8 2e3d d511 25bd 13b1 c63c 4082 92bd
00000160: 2267 a33d ffab 8f3d 8cef 7c3d d006 843d
00000170: 6fee 3d3d 4a42 afbc 3f7b d7bd 9484 f1bd
00000180: 027b dd3d d65b 04be eb6a f1bd 1a5e 79bd
00000190: 0921 a83c 026c adbd 2849 e7bc 9ad4 f7bd
000001a0: ab89 fbbd 9c7e ca3d 8010 b23d 341c 90bd
000001b0: ca27 4d3d 4022 7f3d 8945 a83d 66fe 28bd
000001c0: 26ff d8bd db9a 70bd 1e98 e83d 32ed 8fbd
000001d0: 3e99 f5bd 4df1 793d 1a05 9fbd 69db d6bd
000001e0: 7e5d 6abd 9b29 16bd bc2d 093d 7784 ee3d
000001f0: 3ec8 953d d9d3 673d 14a2 983c 5e5c f03d
00000200: 4be8 cabc 5e0d dd3d 02e4 ad3d ba72 cebd
00000210: 9510 f7bc 62f7 993d aad8 093d b484 7e3d
00000220: dc08 793a 2c44 fb3d 7566 dc3d 91ae 373d
00000230: 6a95 e3bd e799 b53c 30da 4d3d 7edd d6bc
00000240: 1c9f b9bd 3500 323d 72ac e03d 4179 f5bd
00000250: 83b2 77bd 5bbf 7bbd 1c1f 99bd 1267 aebd
00000260: f03f e9bd b645 ed3b 7146 083d 3746 d43d
00000270: d2b8 a7bc abf9 e53d d7aa 9dbd f530 c2bc
00000280: 3097 df3d 986b 9dbc 63fa 07bd 1fc2 70bd
00000290: 084f ad3d ab3d 043d 39b7 4e3d fede 69bd
000002a0: 15b3 e6bb d733 cdbd ea1d e23d ff32 703c
000002b0: 6178 34bc 3a08 883d f17e ba3d b87d e2bd
000002c0: b70b bd3d 8eea e5bc ad8f 60bd e32d d2bd
000002d0: f194 91bc 28b3 f2bd 60d7 e33d 21ed 483d
000002e0: e779 f1bc 17a1 7dbd 45b7 b2bc 22de 193c
000002f0: de20 c43d 6bd9 b3bb c4cf e7bd ceaa 873c
00000300: 5e40 dc3d 8596 f83c 4998 bf3d 9c36 a73d
00000310: f6dc bc3d 7a74 ac3d 2477 0b3d ef75 30bd
00000320: 77dd c1bd c912 7ebd e54f a7bd 1af6 5c3d
00000330: 02c3 b5bd f0f3 a53d 2abc 093d 693e 56bd
00000340: 73be 77bc 0cdf 393b 9362 aebd c6a0 083c
00000350: 14d5 d83d af96 003e 3f0f 833d dde3 97bd
00000360: 3dd5 983d 9bfa 2f3c 13bb 7b3c 66ac f43d
00000370: 01ef abbd 032e 4d3d 92e0 073a d235 a0bc
00000380: d430 e03c 703b be3d fff4 c63d dd40 f5bd
00000390: 17ad 71bd 1f6b 873c c94d ceba e308 de3c
000003a0: 2b90 a83c 9605 c43d e0f9 193d 39b4 ef3d
000003b0: 30bf f23d 7467 52bd ca0e 043d 02b4 eb3d
000003c0: 8dec 1bbc 4aaf bf3d e291 e83d 66b7 f03d
000003d0: 4605 b8bd 704c 2fbd 0846 a93c eaca 6fbd
000003e0: 288e b13d 7148 a53d df63 183d 30f8 f13d
000003f0: bc4b e73d b62f 7cbd 4b80 04bd f470 3b3c

lstm.weight_ih_l1 f4 [256, 64]
0.08322262 0.0016269337 -0.1163587 0.10408463 0.03174648 0.07002779 -0.021351356 -0.021245226
0.036485042 -0.083702326 -0.08315816 -0.031160874 -0.105618566 -0.014571125 -0.05846474 0.07878944
-0.01667118 0.09442422 -0.02367476 -0.119727366 -0.07009864 0.08139163 -0.0052187927 0.035084754
-0.078116916 0.11800682 -0.0023053456 0.07892332 -0.047520857 0.075093165 -0.08065655 0.07809857
0.10319385 0.09218734 -0.012590865 -0.0619599 0.005744358 -0.06510071 -0.10045095 0.02985426
-0.10334655 0.11803105 -0.10906159 -0.11962359 -0.015255188 0.001007713 0.06553389 0.0001956319
0.08077497 0.09160977 0.0124122165 -0.020229489 -0.044368025 0.09904977 0.07024604 -0.040868673
0.11246678 -0.053678714 0.048078302 0.03127228 0.08428841 0.048318233 0.11120337 0.10055806
0.11512831 -0.003459018 -0.055687692 -0.0299592 -0.0037049062 -0.0787388 -0.118678495 -0.04514578
-0.02381636 -0.03334937 0.10294483 0.10960609 -0.027499083 -0.02211444 0.10771059 -0.053578712
-0.03488544 -0.0964894 -0.06493578 -0.105696574 -0.11127038 -0.061437245 -0.08427021 0.032635838
-0.003784943 -0.053089965 0.010041501 -0.103253424 0.026193308 0.068088956 0.0019706525 0.011064277
0.11118905 -0.037068047 0.03719905 0.11506479 0.12003052 -0.009116218 0.03745268 -0.08652431
0.05566534 0.040748447 -0.011028015 -0.016192894 0.012819083 0.06269129 0.019396897 -0.027459424
0.019144835 -0.07181763 0.10375112 -0.050192595 0.09052576 0.07592997 0.008590698 0.015953187
0.099969886 -0.055691298 -0.044609297 0.028876424 0.044100378 -0.060268257 0.0038816214 -0.03103245
0.04995057 0.10832269 0.052167375 0.071687855 -0.063099205 -0.06225605 -0.05707911 -0.101779595
0.041186165 -0.008348255 0.027279578 -0.10888703 -0.06890117 0.024215164 -0.030163039 -0.030136364
-0.023390554 -0.06841223 -0.010052503 0.013285584 0.010472649 -0.07037931 -0.12103386 -0.10598689
0.072253056 -0.020166885 -0.011012056 -0.06479551 -0.07316497 -0.005747601 0.028152773 -0.02299117
0.009532382 -0.046581283 -0.111966655 -4.1001e-05 0.014448718 0.051632084 -0.07061888 -0.08287262
0.07987553 -0.049050644 -0.023646396 0.034281306 -0.09839102 0.02459386 0.0441227 -0.123152226
-0.014818203 -0.035997767 -0.004609047 -0.10389861 -0.11347577 -0.033079963 -0.052654803 0.048240628
0.06750878 0.026107257 0.08778095 0.076388955 0.07096217 -0.0048873997 0.12063415 -0.08270009
-0.015252231 0.117447935 0.06632237 -0.0529582 -0.060304437 -0.07141191 0.009635903 -0.04568177
0.10281545 -0.11539215 -0.12712678 0.06534034 0.008705135 -0.09166801 0.07712576 0.04315644
-0.016489953 -0.12046948 -0.111563236 0.062410995 0.044217587 0.052944433 0.10347623 -0.0049707205
-0.018067408 -0.10607328 0.010703833 -0.047338586 -0.099086165 -0.107121654 0.082873195 0.07496353
-0.07201629 -0.004827064 -0.10046644 0.061371926 0.0773571 -0.10440039 0.06994942 -0.03852528
0.12343692 -0.101015374 0.095425256 0.071272515 -0.06497386 -0.07245807 0.11004605 -0.038152594
-0.020172125 0.0630444 0.00060796615 0.05194555 0.12309377 -0.07427472 -0.04575587 -0.07209165
0.08085846 -0.011224013 0.04392971 -0.09323806 -0.030891953 -0.032126322 0.07198047 -0.094599485
00000000: 9f70 aa3d d63e d53a 784d eebd 532a d53d
00000010: 9908 023d bb6a 8f3d 0ae9 aebc 780a aebc
00000020: 5771 153d 206c abbd d34e aabd 1745 ffbc
00000030: 8c4e d8bd babb 6ebc b978 6fbd 5c5c a13d
00000040: 0092 88bc 7c61 c13d 92f1 c1bc 9f33 f5bd
00000050: e08f 8fbd a8b0 a63d 6802 abbb 08b5 0f3d
00000060: c3fb 9fbd 8fad f13d 4815 17bb 8da2 a13d
00000070: 3ba5 42bd 72ca 993d 432f a5bd 25f2 9f3d
00000080: 4c57 d33d b7cc bc3d ea49 4ebc aac9 7dbd
00000090: 2b3b bc3b 8553 85bd 3ab9 cdbd ec90 f43c
000000a0: 5ba7 d3bd 43ba f13d af5b dfbd 36fd f4bd
000000b0: e5f0 79bc 3d15 843a a236 863d 8a22 4d39
000000c0: 596d a53d e79d bb3d 9c5c 4b3c 50b8 a5bc
000000d0: 3fbb 35bd 9bda ca3d 28dd 8f3d e965 27bd
000000e0: fc54 e63d 36de 5bbd c1ed 443d 5d17 003d
000000f0: 679f ac3d 57e9 453d 98be e33d 62f1 cd3d
00000100: 64c8 eb3d b1b0 62bb c718 64bd ff6c f5bc
00000110: 03ce 72bb cf41 a1bd b60d f3bd c8ea 38bd
00000120: 871a c3bc 5999 08bd bdd4 d23d 2879 e03d
00000130: c245 e1bc 5829 b5bc 5f97 dc3d 5a75 5bbd
00000140: 09e4 0ebd 3c9c c5bd 0dfd 84bd 7277 d8bd
00000150: bae1 e3bd 9fa5 7bbd dc95 acbd 28ad 053d
00000160: ce0c 78bb dd74 59bd 1c85 243c 8876 d3bd
00000170: 5993 d63c 3972 8b3d 1026 013b f146 353c
00000180: 16b7 e33d aad4 17bd 085e 183d 17a7 eb3d
00000190: 90d2 f53d 315c 15bc fb67 193d a833 b1bd
000001a0: 5701 643d d8e7 263d d9ae 34bc f6a6 84bc
000001b0: 2207 523c 4b64 803d 3ee6 9e3c 96f2 e0bc
000001c0: a1d5 9c3c 1f15 93bd 787b d43d c096 4dbd
000001d0: 9265 b93d 2c81 9b3d 00c0 0c3c 42b0 823c
000001e0: 03bd cc3d 8f1c 64bd 3db8 36bd 408e ec3c
000001f0: 99a2 343d d9db 76bd cd62 7e3b c437 febc
00000200: f898 4c3d 49d8 dd3d 75ad 553d 15d1 923d
00000210: 283a 81bd 3300 7fbd c9cb 69bd d271 d0bd
00000220: d3b2 283d 1fc7 08bc 6c79 df3c 2a00 dfbd
00000230: 0e1c 8dbd e15e c63c 7a18 f7bc 89e0 f6bc
00000240: 8c9d bfbc b61b 8cbd 41b3 24bc c7ab 593c
00000250: 7995 2b3c 0723 90bd 9ae0 f7bd a80f d9bd
00000260: 69f9 933d 0635 a5bc e96b 34bc 82b3 84bd
00000270: 84d7 95bd 5f56 bcbb a5a0 e63c fa57 bcbc
00000280: b52d 1c3c 04cc 3ebd c64e e5bd 7df8 2bb8
00000290: 51ba 6c3c 2a7c 533d a2a0 90bd 1fb9 a9bd
000002a0: c895 a33d 54e9 48bd 16b6 c1bc 8e6a 0c3d
000002b0: 3b81 c9bd 1079 c93c 01ba 343d 3c37 fcbd
000002c0: 0cc8 72bc 6572 13bd 7d07 97bb cbc8 d4bd
000002d0: fc65 e8bd db7e 07bd 90ac 57bd f797 453d
000002e0: 0b42 8a3d e3de d53c 80c6 b33d d071 9c3d
000002f0: 9d54 913d 7b26 a0bb 0a0f f73d aa5e a9bd
00000300: 7ee4 79bc 8b88 f03d 06d4 873d b3ea 58bd
00000310: c901 77bd 6840 92bd e8df 1d3c cf1c 3bbd
00000320: e890 d23d b852 ecbd 862d 02be 28d1 853d
00000330: fc9f 0e3c 70bc bbbd 1cf4 9d3d cfc4 303d
00000340: f015 87bc b4b8 f6bd 447b e4bd aca2 7f3d
00000350: 801d 353d 43dc 583d 58eb d33d 6de1 a2bb
00000360: 1a02 94bc f33c d9bd 215f 2f3c 1be6 41bd
00000370: b0ed cabd 9962 dbbd 6cb9 a93d 7b86 993d
00000380: 477d 93bd 592c 9ebb 59c1 cdbd 2161 7b3d
00000390: 666d 9e3d dfcf d5bd a441 8f3d afcc 1dbd
000003a0: 7fcc fc3d 26e1 cebd 516e c33d 53f7 913d
000003b0: 0411 85bd e664 94bd d35f e13d e545 1cbd
000003c0: 0340 a5bc 6c1d 813d eb5f 1f3a dbc4 543d
000003d0: 9618 fc3d 581d 98bd 826a 3bbd c9a4 93bd
000003e0: 1f99 a53d ece4 37bc a4ef 333d 99f3 bebd
000003f0: 1f11 fdbc e496 03bd 7f6a 933d 60bd c1bd

lstm.weight_hh_l1 f4 [256, 64]
-0.10747267 0.10527838 -0.07915259 -0.086295314 -0.10854157 -0.06085073 -0.01786136 0.0025981262
0.10026354 0.086765766 -0.06986105 0.020217262 -0.0417407 -0.06749308 -0.03910968 0.06552132
0.1213124 -0.08118356 0.12613231 0.034567337 -0.0833258 -0.11320975 0.03560033 0.08620936
0.08497338 0.121461675 -0.0033427123 -0.081413835 0.051945616 -0.07858475 -0.018809158 0.036079843
-0.0059501943 -0.040208846 -0.115427166 -0.09021388 -0.06491183 0.042507958 0.123173095 0.11604879
0.03164174 -0.015523101 -0.092778414 -0.04313681 -0.11471651 0.05119503 0.039353393 0.066487856
0.07337206 0.07742759 0.0016825788 -0.070661664 0.12232971 0.096162915 -0.0026273634 -0.07698917
-0.06749872 0.014898212 0.07255629 -0.09046123 -0.055441827 0.054537993 0.04330989 0.0665374
-0.06805705 -0.045410626 -0.037739635 0.08457684 0.026801946 -0.07276335 -0.054699853 -0.04213429
-0.07810128 0.017365044 0.071252115 0.015725652 -0.04123473 0.06225155 0.042170048 0.06760603
0.075445324 0.102809 0.08054599 0.10359734 0.096619025 -0.12031821 -0.1212488 -0.03381642
-0.078269705 -0.0059241126 -0.09001723 -0.07190866 -0.09347267 -0.013026942 -0.09968229 0.11331248
-0.0065082074 -0.0804153 -0.12354534 0.013092441 0.08681117 0.087741986 0.073519096 0.076466754
-0.057801478 -0.0029877045 -0.037345096 -0.015229397 -0.07479864 0.080224246 0.06720558 0.06974254
-0.09281331 0.055015035 0.09825106 0.121563055 0.10418796 -0.074874446 0.027359731 -0.071496926
0.030099176 -0.03998143 0.112072036 0.085666515 -0.11968423 0.016828753 -0.013240196 -0.038399044
-0.11302576 0.094378345 0.07691297 0.07421721 -0.043810405 -0.023795553 -0.1179255 0.107093446
0.061122738 0.10337625 0.053705096 -0.101789504 0.049316026 -0.06404081 0.09846897 0.046852168
-0.022284832 -0.07690199 -0.0851348 -0.05046528 0.059965152 0.05699213 -0.030593626 -0.05208666
0.021023888 0.0035001968 0.017835634 -0.11288451 0.007198187 -0.01901372 0.09384268 0.020864034
-0.09934196 -0.09644151 -0.074784935 -0.06373688 -0.051915124 0.031407896 -0.007086534 0.09354755
-0.030725352 0.070451826 -0.0065965843 -0.051043645 0.011715484 0.07115932 0.0022637236 0.11294213
0.046822645 -0.0040642656 -0.12341281 -0.120113865 -0.045814864 -0.060512077 0.06863292 0.058003858
-0.058462813 0.046391916 -0.031085787 0.0700105 0.013260816 0.104031414 0.041065224 -0.02520674
0.051827975 -0.066216044 0.064317614 -0.08024791 0.0024572273 0.052023333 0.00065022096 -0.08858845
0.09652673 -0.09344511 -0.11652356 0.034229226 0.09997632 -0.0738071 0.0119857285 -0.023248596
0.08823826 -0.02845189 -0.06562102 -0.07866817 -0.10422849 0.033391114 -0.1260106 0.039887942
0.024739437 -0.088373035 -0.055641316 0.04853218 0.11528789 -0.093688786 -0.10043957 -0.10645963
-0.008994019 -0.12785955 0.113359615 0.022291413 0.09536743 -0.0595222 -0.0124254 0.104598746
-0.08148059 0.11157112 0.022521924 0.114071384 -0.07171786 0.11804086 -0.04934527 0.13042308
0.05051359 -0.09883878 -0.08328336 -0.09464 -0.050473344 -0.11566916 -0.10116085 -0.046828516
0.02126033 -0.07243218 0.008463068 0.11728706 0.058585517 0.050364356 0.10158816 -0.08675
00000000: a21a dcbd 319c d73d c11a a2bd 99bb b0bd
00000010: 0b4b debd 9d3e 79bd fd51 92bc 5345 2a3b
00000020: f956 cd3d 40b2 b13d 4f13 8fbd ac9e a53c
00000030: 4cf8 2abd d039 8abd 7931 20bd 0b30 863d
00000040: a372 f83d 9143 a6bd d428 013e 7b96 0d3d
00000050: b8a6 aabd 83da e7bd a7d1 113d 888e b03d
00000060: 8606 ae3d e6c0 f83d 6811 5bbb 4cbc a6bd
00000070: edc4 543d 0bf1 a0bd aa15 9abc 75c8 133d
00000080: d9f9 c2bb 08b2 24bd 1465 ecbd 0ec2 b8bd
00000090: 7ef0 84bd d31c 2e3d 2d42 fc3d fdaa ed3d
000000a0: c59a 013d 9b54 7ebc 9c02 bebd 39b0 30bd
000000b0: 7df0 eabd e1b1 513d 0631 213d c92a 883d
000000c0: 1744 963d 5b92 9e3d fa89 dc3a 10b7 90bd
000000d0: 0088 fa3d 10f1 c43d d82f 2cbb 7fac 9dbd
000000e0: c53c 8abd a117 743c 6498 943d bd43 b9bd
000000f0: f816 63bd 3b63 5f3d b665 313d c344 883d
00000100: 7f61 8bbd 7e00 3abd e094 1abd 9f36 ad3d
00000110: c18f db3c f404 95bd f40c 60bd 0195 2cbd
00000120: 90f3 9fbd 2341 8e3c a1ec 913d 15d3 803c
00000130: c0e5 28bd 7bfb 7e3d 80ba 2c3d 0875 8a3d
00000140: 1483 9a3d 868d d23d 4cf5 a43d d82a d43d
00000150: 32e0 c53d 6569 f6bd 4a51 f8bd 1683 0abd
00000160: de4b a0bd 0f1f c2bb f45a b8bd d944 93bd
00000170: 996e bfbd f46e 55bc 3a26 ccbd 6010 e83d
00000180: cd42 d5bb c7b0 a4bd 5705 fdbd ad81 563c
00000190: 0eca b13d 12b2 b33d 2e91 963d 9a9a 9c3d
000001a0: 3ec1 6cbd 5dcd 43bb 2cf7 18bd b984 79bc
000001b0: 0830 99bd 9c4c a43d 14a3 893d 2dd5 8e3d
000001c0: e814 bebd 7257 613d da37 c93d 0df6 f83d
000001d0: 7f60 d53d c657 99bd 8421 e03c fb6c 92bd
000001e0: 8c92 f63c 91c3 23bd 0686 e53d ed71 af3d
000001f0: 011d f5bd 74dc 893c 68ed 58bc 5148 1dbd
00000200: 0d7a e7bd 6f49 c13d 8c84 9d3d 31ff 973d
00000210: 8a72 33bd e4ee c2bc ed82 f1bd cf53 db3d
00000220: d65b 7a3d edb6 d33d e0f9 5b3d 0477 d0bd
00000230: 9aff 493d d427 83bd 19aa c93d 0fe8 3f3d
00000240: ae8e b6bc ca7e 9dbd 275b aebd aeb4 4ebd
00000250: 059e 753d 9470 693d 7c9f fabc d258 55bd
00000260: 4a3a ac3c 8f63 653b 091c 923c fe2f e7bd
00000270: c5de eb3b a9c2 9bbc 9730 c03d 0deb aa3c
00000280: cc73 cbbd 2083 c5bd d828 99bd 7b88 82bd
00000290: f4a4 54bd 91a5 003d 2836 e8bb dc95 bf3d
000002a0: bcb3 fbbc 0c49 903d 2928 d8bb 2413 51bd
000002b0: 4df2 3f3c fabb 913d fb5a 143b 344e e73d
000002c0: 1ac9 3f3d 882d 85bb dbbf fcbd 42fe f5bd
000002d0: 5ea8 3bbd 83db 77bd 6b8f 8c3d 7495 6d3d
000002e0: b476 6fbd 7305 3e3d 9fa7 febc aa61 8f3d
000002f0: e543 593c 6c0e d53d 0234 283d 5d7e cebc
00000300: 9249 543d 479c 87bd f4b8 833d 0459 a4bd
00000310: 6f09 213b 6b16 553d 9773 2a3a dc6d b5bd
00000320: ceaf c53d 2660 bfbd e7a3 eebd f233 0c3d
00000330: 63c0 cc3d 2d28 97bd ca5f 443c d773 bebc
00000340: 43b6 b43d f013 e9bc 5064 86bd c71c a1bd
00000350: bf75 d5bd 1fc5 083d ec08 01be 8a61 233d
00000360: 5caa ca3c ecfc b4bd 26e8 63bd aec9 463d
00000370: 0f1c ec3d e8df bfbd 43b3 cdbd 8207 dabd
00000380: a65b 13bc 9ded 02be 1629 e83d 7b9c b63c
00000390: 0050 c33d 8dcd 73bd e893 4bbc de37 d63d
000003a0: 4cdf a6bd 667f e43d e67f b83c 429e e93d
000003b0: d0e0 92bd 68bf f13d 441e 4abd a18d 053e
000003c0: 57e7 4e3d fc6b cabd 7790 aabd 9ed2 c1bd
000003d0: 23bd 4ebd f4e3 ecbd 6b2d cfbd 42cf 3fbd
000003e0: 252a ae3c 5357 94bd aea8 0a3c 3334 f03d
000003f0: 5ef7 6f3d db4a 4e3d 740d d03d fca9 b1bd

lstm.bias_ih_l1 f4 [256]
-0.012346324 -0.10204443 -0.09369054 0.010381901 0.013718764 -0.10564416 0.027036298 -0.080938645
0.010918047 0.06967737 -0.043614022 0.049499396 0.09641118 -0.10739534 -0.051332157 -0.023279231
0.116140254 -0.07619053 0.058979686 -0.10081957 -0.08901754 -0.09250309 -0.029167885 -0.11415689
0.09866716 -0.048649848 0.009884011 -0.081079364 0.020782627 -0.041792415 -0.11902006 0.028987972
-0.008606481 0.06382893 -0.033705663 -0.089945644 -0.07557398 -0.027791787 0.0907217 -0.11871585
-0.0011732714 -0.0766741 0.014215865 0.07482912 -0.10369796 -0.0342571 0.106092006 -0.022266481
-0.09618309 0.07159973 0.11310337 0.12564528 -0.11118929 0.056105435 0.01929247 0.028465088
-0.10870683 0.0007334404 -0.03717664 0.028425694 -0.054451123 0.0061589605 -0.12733224 0.009165341
-0.09397172 -0.071286015 -0.054480754 0.11194844 0.09899361 0.1187379 -0.06536971 -0.04832671
-0.09530634 -0.013579081 -0.038999952 0.107317746 -0.032812923 0.04236478 -0.035942167 -0.059372276
-0.0944699 -0.02129968 0.09701254 0.009438553 -0.026585963 0.104531445 0.0907038 -0.105870806
0.081036925 0.02069097 -5.794818e-05 -0.061189637 0.06813157 -0.05164771 -0.1041394 -0.112227336
0.023887387 -0.12715583 -0.11530626 -0.07641685 0.035795067 0.109099925 -0.11388425 0.028950477
-0.09214827 0.040408105 -0.1237969 0.032330252 -0.03549953 -0.072715394 0.02951456 -0.029129175
-0.12433445 -0.08480005 -0.10890473 -0.1278692 0.037395332 -0.11827368 0.037345182 -0.09684024
-0.021838702 0.044002384 -0.007617536 0.019363407 -0.067778565 -0.09777984 0.10628712 0.032916676
0.094566606 -0.10231936 0.07818879 -0.05515686 -0.020586228 0.1007499 -0.051439572 -0.0990904
0.070622995 0.053993966 -0.07473575 -0.10005921 -0.016021876 -0.099384286 -0.045019798 -0.013879171
0.12127883 -0.068361565 -0.0020802487 -0.030119056 -0.04790908 -0.09019915 0.09708801 0.069235414
0.0058955494 -0.045736723 0.043537457 -0.0317348 0.049819365 -0.016288051 -0.11598727 -0.0680558
0.02743185 -0.028268287 -0.028287623 -0.05357184 -0.09798631 -0.11314563 0.10891483 0.029595586
-0.07271073 -0.03631729 -0.11544631 0.11905508 0.046444193 0.0043195975 -0.027543513 -0.07943301
-0.069211185 0.0025947152 -0.11233537 0.07225303 0.050068572 0.0055152476 0.011794121 -0.006186174
-0.079423316 0.10186995 -0.032194592 -0.10637632 0.03548149 -0.021089459 -0.10249127 0.099752136
-0.05348668 -0.041588645 -0.029215984 0.027198879 0.01671253 -0.0045817937 -0.01143982 -0.10554269
-0.0133191515 -0.07225627 -0.06560858 0.06478449 -0.10265745 -0.08116109 -0.004893689 -0.1027048
-0.079803355 0.042732026 -0.06904826 -0.03712749 0.06724175 0.011586452 0.09924722 0.11574106
-0.07425272 0.057163868 0.048440315 0.061094206 0.013805953 0.013474852 0.11490711 -0.07394484
0.034327284 -0.10354365 -0.105629385 -0.09986073 0.023208601 0.084899634 -0.057484172 0.04705547
-0.07209466 -0.04307484 -0.11119707 -0.013991216 -0.07596407 -0.040953774 -0.037480738 0.06863321
-0.05353425 -0.05452756 -0.096527755 -0.11410438 0.06050238 0.12502319 -0.110628136 0.06428013
0.05672212 -0.109357245 -0.026432384 0.048762254 0.11930228 -0.10536686 0.10602348 0.032824915
00000000: 3c48 4abc acfc d0bd d3e0 bfbd d918 2a3c
00000010: abc4 603c f75b d8bd 3a7b dd3c 29c3 a5bd
00000020: 9ce1 323c 02b3 8e3d 9ea4 32bd e1bf 4a3d
00000030: 3a73 c53d 17f2 dbbd ab41 52bd 16b4 bebc
00000040: f1da ed3d c809 9cbd af94 713d 7e7a cebd
00000050: d44e b6bd 4372 bdbd 7df1 eebc 16cb e9bd
00000060: 0212 ca3d 1045 47bd 8cf0 213c f00c a6bd
00000070: 5440 aa3c 862e 2bbd cac0 f3bd 2f78 ed3c
00000080: 3302 0dbc beb8 823d f30e 0abd 6c35 b8bd
00000090: 88c6 9abd 9aab e3bc 4ccc b93d 4c21 f3bd
000000a0: 75c8 99ba 4f07 9dbd a9e9 683c 0240 993d
000000b0: 995f d4bd 2c51 0cbd c446 d93d 3268 b6bc
000000c0: a4fb c4bd e1a2 923d bda2 e73d 28a9 003e
000000d0: 36b7 e3bd d0ce 653d 3e0b 9e3c 9e2f e93c
000000e0: b0a1 debd 5a44 403a 8846 18bd 00dd e83c
000000f0: 2408 5fbd 1bd1 c93b 6263 02be 3a2a 163c
00000100: 3f74 c0bd 67fe 91bd 3627 5fbd 3945 e53d
00000110: 29bd ca3d db2c f33d 8ee0 85bd 3af2 45bd
00000120: f82f c3bd cb7a 5ebc 6abe 1fbd 68c9 db3d
00000130: d866 06bd b186 2d3d 1838 13bd 5830 73bd
00000140: 6f79 c1bd ab7c aebc 83ae c63d 29a4 1a3c
00000150: ceca d9bc 9514 d63d eac2 b93d cbd2 d8bd
00000160: b0f6 a53d 1c80 a93c 620d 73b8 fca1 7abd
00000170: 9188 8b3d 8d8c 53bd 0a47 d5bd 72d7 e5bd
00000180: 7baf c33c 2335 02be b025 ecbd 7080 9cbd
00000190: d99d 123d c86f df3d 253c e9bd 8d29 ed3c
000001a0: 3bb8 bcbd f882 253d 3b89 fdbd ba6c 043d
000001b0: f567 11bd cfeb 94bd 85c8 f13c 4fa0 eebc
000001c0: 0fa3 febd a6ab adbd 7109 dfbd 25f0 02be
000001d0: d92b 193d 7939 f2bd 43f7 183d 2d54 c6bd
000001e0: 14e7 b2bc d83b 343d 869c f9bb 02a0 9e3c
000001f0: 7dcf 8abd cc40 c8bd 10ad d93d a3d3 063d
00000200: 23ac c13d d08c d1bd 7221 a03d 29ec 61bd
00000210: 73a4 a8bc f755 ce3d 4db2 52bd e8ef cabd
00000220: caa2 903d c728 5d3d 0f0f 99bd d8eb ccbd
00000230: 4f40 83bc fd89 cbbd ae66 38bd 7665 63bc
00000240: 0961 f83d 2601 8cbd c854 08bb 3dbc f6bc
00000250: 503c 44bd 55ba b8bd 14d6 c63d 4ccb 8d3d
00000260: 742f c13b 6e56 3bbd 5554 323d 5afc 01bd
00000270: 640f 4c3d 856e 85bc bc8a edbd d760 8bbd
00000280: c2b8 e03c e592 e7bc 72bb e7bc 256e 5bbd
00000290: 0cad c8bd e5b8 e7bd bd0e df3d 7172 f23c
000002a0: 5de9 94bd 70c1 14bd 1d6f ecbd 26d3 f33d
000002b0: 443c 3e3d 698b 8d3b efa2 e1bc c6ad a2bd
000002c0: 98be 8dbd 190c 2a3b 1610 e6bd 66f9 933d
000002d0: b414 4d3d 40b9 b43b 213c 413c 64b5 cabb
000002e0: b1a8 a2bd 31a1 d03d 7ade 03bd d4db d9bd
000002f0: 0a55 113d cdc3 acbc f1e6 d1bd d94a cc3d
00000300: d914 5bbd db58 2abd 5c56 efbc 2fd0 de3c
00000310: b7e8 883c df22 96bb 156e 3bbc c426 d8bd
00000320: 9238 5abc 18fb 93bd cb5d 86bd bbad 843d
00000330: 123e d2bd c937 a6bd 3d5b a0bb e556 d2bd
00000340: f16f a3bd c707 2f3d 2d69 8dbd ff12 18bd
00000350: 0bb6 893d 1ad5 3d3c 2042 cb3d a609 ed3d
00000360: cf11 98bd a924 6a3d 5a69 463d eb3d 7a3d
00000370: 5d32 623c a0c5 5c3c 6b54 eb3d 6470 97bd
00000380: c49a 0c3d b10e d4bd 3854 d8bd c883 ccbd
00000390: f71f be3c dcdf ad3d 8674 6bbd 3dbd 403d
000003a0: 5da6 93bd 3e6f 30bd 4abb e3bd 6a3b 65bc
000003b0: 0d93 9bbd 25bf 27bd 6785 19bd 928f 8c3d
000003c0: bb46 5bbd 4a58 5fbd 58b0 c5bd 8faf e9bd
000003d0: 58d1 773d 1406 003e 0191 e2bd 4da5 833d
000003e0: 7455 683d b1f6 dfbd ba88 d8bc eeba 473d
000003f0: c154 f43d 95ca d7bd d722 d93d 6b73 063d
